…
=None, mask_adj=True, mask_type='soft', model_type='BiGLSTM', normalize_adj=True, num_days=8, num_heads=1, print_inteval=500, rank_loss=False, relation_num=2, rsr_data_path=None, seed=10086, shuffle=True, side_info=False, sparse_adj_path='../data/icgraph_window_250_0.8/', stock_num=1931, test_mask_path='./data/test_mask_126_1931.npy', test_path='./data/test_126_1931_12.npy', top_stocks=5, train_mask_path='./data/train_mask_2305_1931.npy', train_path='./data/train_2305_1931_12.npy', use_adj=True)
load 2305 train graphs successful!
load 126 test graphs successful!
832
BiGLSTM(
  (input_to_hidden): Linear(in_features=9, out_features=128, bias=True)
  (forward_cells): ModuleList(
    (0): GLSTMCell(
      (dropout): Dropout(p=0.3, inplace=False)
      (Wh): Linear(in_features=128, out_features=640, bias=False)
      (Wn): Linear(in_features=128, out_features=640, bias=False)
      (Wt): Linear(in_features=128, out_features=640, bias=False)
      (U): Linear(in_features=128, out_features=640, bias=False)
      (V): Linear(in_features=128, out_features=640, bias=True)
      (relu): LeakyReLU(negative_slope=0.01)
      (gnn): ModuleList(
        (0): RGCN(
          (attention): ModuleList(
            (0): GraphAttentionLayer (128 -> 128)
            (1): GraphAttentionLayer (128 -> 128)
          )
          (lin_rel): ModuleList(
            (0): Linear(in_features=128, out_features=128, bias=True)
            (1): Linear(in_features=128, out_features=128, bias=True)
          )
          (lin_root): ModuleList(
            (0): Linear(in_features=128, out_features=128, bias=False)
            (1): Linear(in_features=128, out_features=128, bias=False)
          )
          (lin_gate): Linear(in_features=256, out_features=256, bias=True)
        )
      )
    )
  )
  (backward_cells): ModuleList(
    (0): GLSTMCell(
      (dropout): Dropout(p=0.3, inplace=False)
      (Wh): Linear(in_features=128, out_features=640, bias=False)
      (Wn): Linear(in_features=128, out_features=640, bias=False)
      (Wt): Linear(in_features=128, out_features=640, bias=False)
      (U): Linear(in_features=128, out_features=640, bias=False)
      (V): Linear(in_features=128, out_features=640, bias=True)
      (relu): LeakyReLU(negative_slope=0.01)
      (gnn): ModuleList(
        (0): RGCN(
          (attention): ModuleList(
            (0): GraphAttentionLayer (128 -> 128)
            (1): GraphAttentionLayer (128 -> 128)
          )
          (lin_rel): ModuleList(
            (0): Linear(in_features=128, out_features=128, bias=True)
            (1): Linear(in_features=128, out_features=128, bias=True)
          )
          (lin_root): ModuleList(
            (0): Linear(in_features=128, out_features=128, bias=False)
            (1): Linear(in_features=128, out_features=128, bias=False)
          )
          (lin_gate): Linear(in_features=256, out_features=256, bias=True)
        )
      )
    )
  )
  (fc0): ModuleList(
    (0): Linear(in_features=256, out_features=128, bias=True)
  )
  (w_out): Linear(in_features=128, out_features=1, bias=True)
  (dropout): Dropout(p=0.3, inplace=False)
)
train 0, step: 0, loss: 4.795775508209538, grad_norm: 4.816644294952649, ic: 0.02281513316069529
train 0, step: 500, loss: 0.8600190197873493, grad_norm: 0.03506950938422175, ic: 0.04586377011174172
train 0, step: 1000, loss: 1.9660215901037859, grad_norm: 0.8909643779227973, ic: 0.03330555094931244
train 0, step: 1500, loss: 0.9542279752346838, grad_norm: 0.06415675409314335, ic: 0.03355429852470855
…
