…
d=10086, shuffle=True, side_info=False, sparse_adj_path='../data/icgraph_window_250_0.8/', stock_num=1026, test_mask_path='./data/NASDAQ/test_mask_237_1026.npy', test_path='./data/NASDAQ/test_237_1026_6.npy', top_stocks=5, train_mask_path='./data/NASDAQ/train_mask_756_1026.npy', train_path='./data/NASDAQ/train_756_1026_6.npy', use_adj=True)
#tickers selected: 1026
single EOD data shape: (1245, 6)
(1026, 1245, 5) (1026, 1245) (1026, 1245) (1026, 1245)
#tickers selected: 1026
single EOD data shape: (1245, 6)
(1026, 1245, 5) (1026, 1245) (1026, 1245) (1026, 1245)
28851
BiGLSTM(
  (input_to_hidden): Linear(in_features=5, out_features=128, bias=True)
  (forward_cells): ModuleList(
    (0): GLSTMCell(
      (dropout): Dropout(p=0.3, inplace=False)
      (Wh): Linear(in_features=128, out_features=640, bias=False)
      (Wn): Linear(in_features=128, out_features=640, bias=False)
      (Wt): Linear(in_features=128, out_features=640, bias=False)
      (U): Linear(in_features=128, out_features=640, bias=False)
      (V): Linear(in_features=128, out_features=640, bias=True)
      (relu): LeakyReLU(negative_slope=0.01)
      (gnn): ModuleList(
        (0): RGCN(
          (attention): ModuleList(
            (0): GraphAttentionLayer (128 -> 128)
          )
          (lin_rel): ModuleList(
            (0): Linear(in_features=128, out_features=128, bias=True)
          )
          (lin_root): ModuleList(
            (0): Linear(in_features=128, out_features=128, bias=False)
          )
          (lin_gate): Linear(in_features=128, out_features=128, bias=True)
        )
      )
    )
  )
  (backward_cells): ModuleList(
    (0): GLSTMCell(
      (dropout): Dropout(p=0.3, inplace=False)
      (Wh): Linear(in_features=128, out_features=640, bias=False)
      (Wn): Linear(in_features=128, out_features=640, bias=False)
      (Wt): Linear(in_features=128, out_features=640, bias=False)
      (U): Linear(in_features=128, out_features=640, bias=False)
      (V): Linear(in_features=128, out_features=640, bias=True)
      (relu): LeakyReLU(negative_slope=0.01)
      (gnn): ModuleList(
        (0): RGCN(
          (attention): ModuleList(
            (0): GraphAttentionLayer (128 -> 128)
          )
          (lin_rel): ModuleList(
            (0): Linear(in_features=128, out_features=128, bias=True)
          )
          (lin_root): ModuleList(
            (0): Linear(in_features=128, out_features=128, bias=False)
          )
          (lin_gate): Linear(in_features=128, out_features=128, bias=True)
        )
      )
    )
  )
  (fc0): ModuleList(
    (0): Linear(in_features=256, out_features=128, bias=True)
  )
  (w_out): Linear(in_features=128, out_features=1, bias=True)
  (dropout): Dropout(p=0.3, inplace=False)
)
norm clip needed:  tensor(90.4520, device='cuda:0') input_to_hidden.weight torch.Size([128, 5])
norm clip needed:  tensor(57.4472, device='cuda:0') input_to_hidden.bias torch.Size([128])
norm clip needed:  tensor(119.5087, device='cuda:0') forward_cells.0.Wh.weight torch.Size([640, 128])
norm clip needed:  tensor(75.4876, device='cuda:0') forward_cells.0.Wn.weight torch.Size([640, 128])
…
