…
01', seed=10086, shuffle=True, side_info=False, sparse_adj_path='../data/icgraph_window_250_0.8/', stock_num=1931, test_mask_path='./data/NYSE/test_mask_237_1737.npy', test_path='./data/NYSE/test_237_1737_6.npy', top_stocks=5, train_mask_path='./data/NYSE/train_mask_756_1737.npy', train_path='./data/NYSE/train_756_1737_6.npy', use_adj=True)
#tickers selected: 1737
single EOD data shape: (1245, 6)
(1737, 1245, 5) (1737, 1245) (1737, 1245) (1737, 1245)
#tickers selected: 1737
single EOD data shape: (1245, 6)
(1737, 1245, 5) (1737, 1245) (1737, 1245) (1737, 1245)
23234
BiGLSTM(
  (input_to_hidden): Linear(in_features=5, out_features=128, bias=True)
  (forward_cells): ModuleList(
    (0): GLSTMCell(
      (dropout): Dropout(p=0.3, inplace=False)
      (Wh): Linear(in_features=128, out_features=640, bias=False)
      (Wn): Linear(in_features=128, out_features=640, bias=False)
      (Wt): Linear(in_features=128, out_features=640, bias=False)
      (U): Linear(in_features=128, out_features=640, bias=False)
      (V): Linear(in_features=128, out_features=640, bias=True)
      (relu): LeakyReLU(negative_slope=0.01)
      (gnn): ModuleList(
        (0): RGCN(
          (attention): ModuleList(
            (0): GraphAttentionLayer (128 -> 128)
          )
          (lin_rel): ModuleList(
            (0): Linear(in_features=128, out_features=128, bias=True)
          )
          (lin_root): ModuleList(
            (0): Linear(in_features=128, out_features=128, bias=False)
          )
          (lin_gate): Linear(in_features=128, out_features=128, bias=True)
        )
      )
    )
  )
  (backward_cells): ModuleList(
    (0): GLSTMCell(
      (dropout): Dropout(p=0.3, inplace=False)
      (Wh): Linear(in_features=128, out_features=640, bias=False)
      (Wn): Linear(in_features=128, out_features=640, bias=False)
      (Wt): Linear(in_features=128, out_features=640, bias=False)
      (U): Linear(in_features=128, out_features=640, bias=False)
      (V): Linear(in_features=128, out_features=640, bias=True)
      (relu): LeakyReLU(negative_slope=0.01)
      (gnn): ModuleList(
        (0): RGCN(
          (attention): ModuleList(
            (0): GraphAttentionLayer (128 -> 128)
          )
          (lin_rel): ModuleList(
            (0): Linear(in_features=128, out_features=128, bias=True)
          )
          (lin_root): ModuleList(
            (0): Linear(in_features=128, out_features=128, bias=False)
          )
          (lin_gate): Linear(in_features=128, out_features=128, bias=True)
        )
      )
    )
  )
  (fc0): ModuleList(
    (0): Linear(in_features=256, out_features=128, bias=True)
  )
  (w_out): Linear(in_features=128, out_features=1, bias=True)
  (dropout): Dropout(p=0.3, inplace=False)
)
train 0, step: 0, loss: 0.01590569317340851, grad_norm: 0.2514014363091677, ic: -0.01536432436510039
train 0, step: 500, loss: 0.00011986588651780039, grad_norm: 3.476083281306995e-06, ic: -0.0025663545108320363
Epoch 0: 2022-05-05 17:56:59.577257: train loss: 0.00035424102809198294
Eval step 0: eval loss: 7.130632002372295e-05
…
