Namespace(train_path='./data/train_2305_1931_12.npy', test_path='./data/test_126_1931_12.npy', train_mask_path='./data/train_mask_2305_1931.npy', test_mask_path='./data/test_mask_126_1931.npy', label_cnt=3, batch_size=1, lr=0.001, adj_path='./data/concepts_graph_1931_233_3.npy', model_type='BiGLSTM', dataset_type='AdjTimeDataset', seed=10086, num_days=8, epochs=20, hidden_dim=128, input_dim=9, dout=0.3, lstm_layers=1, num_heads=1, gnn_layers=2, print_inteval=500, relation_num=1, mask_type='soft', shuffle=True, input_graph=True, use_adj=False, mask_adj=False)
853115
BiGLSTM(
  (input_to_hidden): Linear(in_features=9, out_features=128, bias=True)
  (forward_cell): GLSTMCell(
    (dropout): Dropout(p=0.3, inplace=False)
    (Wh): Linear(in_features=128, out_features=640, bias=False)
    (Wn): Linear(in_features=128, out_features=640, bias=False)
    (Wt): Linear(in_features=128, out_features=640, bias=False)
    (U): Linear(in_features=128, out_features=640, bias=False)
    (V): Linear(in_features=128, out_features=640, bias=True)
    (relu): LeakyReLU(negative_slope=0.01)
    (gnn): ModuleList(
      (0): GraphConv(128, 128)
      (1): GraphConv(128, 128)
    )
  )
  (backward_cell): GLSTMCell(
    (dropout): Dropout(p=0.3, inplace=False)
    (Wh): Linear(in_features=128, out_features=640, bias=False)
    (Wn): Linear(in_features=128, out_features=640, bias=False)
    (Wt): Linear(in_features=128, out_features=640, bias=False)
    (U): Linear(in_features=128, out_features=640, bias=False)
    (V): Linear(in_features=128, out_features=640, bias=True)
    (relu): LeakyReLU(negative_slope=0.01)
    (gnn): ModuleList(
      (0): GraphConv(128, 128)
      (1): GraphConv(128, 128)
    )
  )
  (fc0): Linear(in_features=256, out_features=128, bias=True)
  (w_out): Linear(in_features=128, out_features=1, bias=True)
  (dropout): Dropout(p=0.3, inplace=False)
)
train 0, step: 0, loss: 0.8224811888577644, grad_norm: 0.12863429554628292, ic: -0.027793866204674597
train 0, step: 500, loss: 1.0989442005108938, grad_norm: 0.014860083687053806, ic: 0.004937155423159468
train 0, step: 1000, loss: 0.6801176165590191, grad_norm: 6.797249127266673e-05, ic: 0.029470025979062987
…
