Namespace(adj_path='./data/concepts_graph_1931_233_3.npy', batch_size=1, dataset_type='AdjTimeDataset', dout=0.3, epochs=20, gnn_layers=2, hidden_dim=128, input_dim=9, input_graph=True, label_cnt=3, lr=0.001, lstm_layers=1, mask_adj=True, mask_type='soft', model_type='BiGLSTM', num_days=8, num_heads=1, print_inteval=500, relation_num=1, seed=10086, shuffle=True, test_mask_path='./data/test_mask_126_1931.npy', test_path='./data/test_126_1931_12.npy', train_mask_path='./data/train_mask_2305_1931.npy', train_path='./data/train_2305_1931_12.npy', use_adj=False)
54590
BiGLSTM(
  (input_to_hidden): Linear(in_features=9, out_features=128, bias=True)
  (forward_cell): GLSTMCell(
    (dropout): Dropout(p=0.3, inplace=False)
    (Wh): Linear(in_features=128, out_features=640, bias=False)
    (Wn): Linear(in_features=128, out_features=640, bias=False)
    (Wt): Linear(in_features=128, out_features=640, bias=False)
    (U): Linear(in_features=128, out_features=640, bias=False)
    (V): Linear(in_features=128, out_features=640, bias=True)
    (relu): LeakyReLU(negative_slope=0.01)
    (gnn): ModuleList(
      (0): GraphConv(128, 128)
      (1): GraphConv(128, 128)
    )
  )
  (backward_cell): GLSTMCell(
    (dropout): Dropout(p=0.3, inplace=False)
    (Wh): Linear(in_features=128, out_features=640, bias=False)
    (Wn): Linear(in_features=128, out_features=640, bias=False)
    (Wt): Linear(in_features=128, out_features=640, bias=False)
    (U): Linear(in_features=128, out_features=640, bias=False)
    (V): Linear(in_features=128, out_features=640, bias=True)
    (relu): LeakyReLU(negative_slope=0.01)
    (gnn): ModuleList(
      (0): GraphConv(128, 128)
      (1): GraphConv(128, 128)
    )
  )
  (fc0): Linear(in_features=256, out_features=128, bias=True)
  (w_out): Linear(in_features=128, out_features=1, bias=True)
  (dropout): Dropout(p=0.3, inplace=False)
)
train 0, step: 0, loss: 0.8208710336868479, grad_norm: 0.13168332720693687, ic: -0.02304773472706633
train 0, step: 500, loss: 1.152311362424984, grad_norm: 0.014446543774220121, ic: 0.0716439110391145
train 0, step: 1000, loss: 0.7121996737942837, grad_norm: 9.801185549478023e-05, ic: 0.09297214210691299
train 0, step: 1500, loss: 0.8560795547938583, grad_norm: 0.16706018318477717, ic: 0.05719778960414934
…
