…
=0.3, epochs=40, glstm_layers=2, gnn_layers=1, gpu=0, hidden_dim=128, input_dim=9, input_graph=True, label_cnt=3, lr=0.001, lstm_layers=1, mask_adj=True, mask_type='soft', model_type='BiGLSTM', normalize_adj=True, num_days=8, num_heads=1, print_inteval=500, relation_num=1, seed=10086, shuffle=True, side_info=False, sparse_adj_path=None, stock_num=1931, test_mask_path='./data/test_mask_126_1931.npy', test_path='./data/test_126_1931_12.npy', top_stocks=5, train_mask_path='./data/train_mask_2305_1931.npy', train_path='./data/train_2305_1931_12.npy', use_adj=True)
76320
BiGLSTM(
  (input_to_hidden): Linear(in_features=9, out_features=128, bias=True)
  (forward_cells): ModuleList(
    (0): GLSTMCell(
      (dropout): Dropout(p=0.3, inplace=False)
      (Wh): Linear(in_features=128, out_features=640, bias=False)
      (Wn): Linear(in_features=128, out_features=640, bias=False)
      (Wt): Linear(in_features=128, out_features=640, bias=False)
      (U): Linear(in_features=128, out_features=640, bias=False)
      (V): Linear(in_features=128, out_features=640, bias=True)
      (relu): LeakyReLU(negative_slope=0.01)
      (gnn): ModuleList(
        (0): RGCN(
          (lin_rel): ModuleList(
            (0): Linear(in_features=128, out_features=128, bias=True)
          )
          (lin_root): ModuleList(
            (0): Linear(in_features=128, out_features=128, bias=False)
          )
        )
      )
    )
    (1): GLSTMCell(
      (dropout): Dropout(p=0.3, inplace=False)
      (Wh): Linear(in_features=128, out_features=640, bias=False)
      (Wn): Linear(in_features=128, out_features=640, bias=False)
      (Wt): Linear(in_features=128, out_features=640, bias=False)
      (U): Linear(in_features=128, out_features=640, bias=False)
      (V): Linear(in_features=128, out_features=640, bias=True)
      (relu): LeakyReLU(negative_slope=0.01)
      (gnn): ModuleList(
        (0): RGCN(
          (lin_rel): ModuleList(
            (0): Linear(in_features=128, out_features=128, bias=True)
          )
          (lin_root): ModuleList(
            (0): Linear(in_features=128, out_features=128, bias=False)
          )
        )
      )
    )
  )
  (backward_cells): ModuleList(
    (0): GLSTMCell(
      (dropout): Dropout(p=0.3, inplace=False)
      (Wh): Linear(in_features=128, out_features=640, bias=False)
      (Wn): Linear(in_features=128, out_features=640, bias=False)
      (Wt): Linear(in_features=128, out_features=640, bias=False)
      (U): Linear(in_features=128, out_features=640, bias=False)
      (V): Linear(in_features=128, out_features=640, bias=True)
      (relu): LeakyReLU(negative_slope=0.01)
      (gnn): ModuleList(
        (0): RGCN(
          (lin_rel): ModuleList(
            (0): Linear(in_features=128, out_features=128, bias=True)
          )
          (lin_root): ModuleList(
            (0): Linear(in_features=128, out_features=128, bias=False)
          )
        )
      )
    )
    (1): GLSTMCell(
      (dropout): Dropout(p=0.3, inplace=False)
      (Wh): Linear(in_features=128, out_features=640, bias=False)
      (Wn): Linear(in_features=128, out_features=640, bias=False)
      (Wt): Linear(in_features=128, out_features=640, bias=False)
      (U): Linear(in_features=128, out_features=640, bias=False)
      (V): Linear(in_features=128, out_features=640, bias=True)
      (relu): LeakyReLU(negative_slope=0.01)
      (gnn): ModuleList(
        (0): RGCN(
          (lin_rel): ModuleList(
            (0): Linear(in_features=128, out_features=128, bias=True)
          )
          (lin_root): ModuleList(
            (0): Linear(in_features=128, out_features=128, bias=False)
          )
        )
      )
    )
  )
  (fc0): ModuleList(
    (0): Linear(in_features=256, out_features=128, bias=True)
    (1): Linear(in_features=256, out_features=128, bias=True)
  )
  (w_out): Linear(in_features=128, out_features=1, bias=True)
  (dropout): Dropout(p=0.3, inplace=False)
)
train 0, step: 0, loss: 4.865364176114151, grad_norm: 1.5549274707063447, ic: 0.04295398928142538
train 0, step: 500, loss: 0.8704151420909476, grad_norm: 0.031031462687903924, ic: -0.019483662409893222
train 0, step: 1000, loss: 1.9423824553081566, grad_norm: 0.42700331758531346, ic: -0.018854003328011255
train 0, step: 1500, loss: 0.9392493206521739, grad_norm: 0.013096233993937105, ic: 0.012017206174629824
…
