…
0.3, epochs=20, glstm_layers=1, gnn_layers=1, gpu=0, hidden_dim=128, input_dim=9, input_graph=True, label_cnt=3, lr=0.001, lstm_layers=1, mask_adj=False, mask_type='soft', model_type='BiGLSTM', normalize_adj=True, num_days=8, num_heads=1, print_inteval=500, relation_num=1, seed=10086, shuffle=True, side_info=False, sparse_adj_path=None, stock_num=1931, test_mask_path='./data/test_mask_126_1931.npy', test_path='./data/test_126_1931_12.npy', top_stocks=5, train_mask_path='./data/train_mask_2305_1931.npy', train_path='./data/train_2305_1931_12.npy', use_adj=True)
66348
BiGLSTM(
  (input_to_hidden): Linear(in_features=9, out_features=128, bias=True)
  (forward_cells): ModuleList(
    (0): GLSTMCell(
      (dropout): Dropout(p=0.3, inplace=False)
      (Wh): Linear(in_features=128, out_features=640, bias=False)
      (Wn): Linear(in_features=128, out_features=640, bias=False)
      (Wt): Linear(in_features=128, out_features=640, bias=False)
      (U): Linear(in_features=128, out_features=640, bias=False)
      (V): Linear(in_features=128, out_features=640, bias=True)
      (relu): LeakyReLU(negative_slope=0.01)
      (gnn): ModuleList(
        (0): RGCN(
          (lin_rel): ModuleList(
            (0): Linear(in_features=128, out_features=128, bias=True)
          )
          (lin_root): ModuleList(
            (0): Linear(in_features=128, out_features=128, bias=False)
          )
        )
      )
    )
  )
  (backward_cells): ModuleList(
    (0): GLSTMCell(
      (dropout): Dropout(p=0.3, inplace=False)
      (Wh): Linear(in_features=128, out_features=640, bias=False)
      (Wn): Linear(in_features=128, out_features=640, bias=False)
      (Wt): Linear(in_features=128, out_features=640, bias=False)
      (U): Linear(in_features=128, out_features=640, bias=False)
      (V): Linear(in_features=128, out_features=640, bias=True)
      (relu): LeakyReLU(negative_slope=0.01)
      (gnn): ModuleList(
        (0): RGCN(
          (lin_rel): ModuleList(
            (0): Linear(in_features=128, out_features=128, bias=True)
          )
          (lin_root): ModuleList(
            (0): Linear(in_features=128, out_features=128, bias=False)
          )
        )
      )
    )
  )
  (fc0): ModuleList(
    (0): Linear(in_features=256, out_features=128, bias=True)
  )
  (w_out): Linear(in_features=128, out_features=1, bias=True)
  (dropout): Dropout(p=0.3, inplace=False)
)
train 0, step: 0, loss: 4.812983700034207, grad_norm: 4.553529075703324, ic: 0.03161013369248165
train 0, step: 500, loss: 0.8656210996373399, grad_norm: 0.025309315554284645, ic: 0.019100561092671813
train 0, step: 1000, loss: 1.9484636464429408, grad_norm: 0.4441113962105849, ic: -0.022537626908348096
train 0, step: 1500, loss: 0.9546164772727272, grad_norm: 0.05094970889249416, ic: 0.047459284835967216
…
