…
'AdjAnnTimeDataset', dout=0.3, epochs=40, gnn_layers=2, gpu=0, hidden_dim=128, input_dim=9, input_graph=True, label_cnt=3, lr=0.001, lstm_layers=3, mask_adj=True, mask_type='soft', model_type='RGCNModel', normalize_adj=True, num_days=1, num_heads=1, print_inteval=500, relation_num=1, seed=10086, shuffle=True, side_info=True, sparse_adj_path=None, stock_num=1931, test_mask_path='./data/test_mask_126_1931.npy', test_path='./data/test_126_1931_12.npy', top_stocks=5, train_mask_path='./data/train_mask_2305_1931.npy', train_path='./data/train_2305_1931_12.npy', use_adj=True)
13663
RGCNModel(
  (fc1): Linear(in_features=9, out_features=128, bias=True)
  (fc2): Linear(in_features=128, out_features=128, bias=True)
  (fc3): Linear(in_features=128, out_features=128, bias=True)
  (fc4): Linear(in_features=128, out_features=1, bias=True)
  (gnns): ModuleList(
    (0): RGCN(
      (lin_rel): ModuleList(
        (0): Linear(in_features=128, out_features=128, bias=True)
      )
      (lin_root): ModuleList(
        (0): Linear(in_features=128, out_features=128, bias=False)
      )
    )
    (1): RGCN(
      (lin_rel): ModuleList(
        (0): Linear(in_features=128, out_features=128, bias=True)
      )
      (lin_root): ModuleList(
        (0): Linear(in_features=128, out_features=128, bias=False)
      )
    )
  )
  (dropout): Dropout(p=0.3, inplace=False)
  (relu): LeakyReLU(negative_slope=0.01)
  (type_embed): Embedding(89, 128)
  (fuse_type): Linear(in_features=256, out_features=128, bias=True)
)
train 0, step: 0, loss: 2.059895704668972, grad_norm: 1.9689148016934626, ic: -0.029290290707210835
train 0, step: 500, loss: 1.3425030133505496, grad_norm: 2.2757747110403557, ic: 0.02204279645323264
train 0, step: 1000, loss: 1.5125488680825492, grad_norm: 0.03922840120084158, ic: -0.03244043349240455
train 0, step: 1500, loss: 1.1886642186299001, grad_norm: 0.09845931721828201, ic: -0.061418301111955384
…
