…
_graph=True, label_cnt=3, lr=0.001, lstm_layers=3, mask_adj=True, mask_type='soft', model_type='RGCNModel', normalize_adj=True, num_days=1, num_heads=1, print_inteval=500, relation_num=2, seed=10086, shuffle=True, side_info=False, sparse_adj_path='../data/icgraph_window_250_0.8/', stock_num=1931, test_mask_path='./data/test_mask_126_1931.npy', test_path='./data/test_126_1931_12.npy', top_stocks=5, train_mask_path='./data/train_mask_2305_1931.npy', train_path='./data/train_2305_1931_12.npy', use_adj=True)
load 2305 train graphs successful!
load 126 test graphs successful!
8945
RGCNModel(
  (fc1): Linear(in_features=9, out_features=128, bias=True)
  (fc2): Linear(in_features=128, out_features=128, bias=True)
  (fc3): Linear(in_features=128, out_features=128, bias=True)
  (fc4): Linear(in_features=128, out_features=1, bias=True)
  (gnns): ModuleList(
    (0): RGCN(
      (lin_rel): ModuleList(
        (0): Linear(in_features=128, out_features=128, bias=True)
        (1): Linear(in_features=128, out_features=128, bias=True)
      )
      (lin_root): ModuleList(
        (0): Linear(in_features=128, out_features=128, bias=False)
        (1): Linear(in_features=128, out_features=128, bias=False)
      )
    )
    (1): RGCN(
      (lin_rel): ModuleList(
        (0): Linear(in_features=128, out_features=128, bias=True)
        (1): Linear(in_features=128, out_features=128, bias=True)
      )
      (lin_root): ModuleList(
        (0): Linear(in_features=128, out_features=128, bias=False)
        (1): Linear(in_features=128, out_features=128, bias=False)
      )
    )
  )
  (dropout): Dropout(p=0.3, inplace=False)
  (relu): LeakyReLU(negative_slope=0.01)
)
train 0, step: 0, loss: 2.0793296844120555, grad_norm: 0.6271507184925209, ic: -0.010495029972923276
train 0, step: 500, loss: 1.3544677549279758, grad_norm: 0.8545752020938582, ic: -0.0073150647929204095
train 0, step: 1000, loss: 1.507930674451463, grad_norm: 0.03221458698218399, ic: 0.1019432995908614
…
