…
market=None, mask_adj=True, mask_type='soft', model_type='RGCNModel', normalize_adj=True, num_days=1, num_heads=1, print_inteval=500, rank_loss=False, relation_num=2, rsr_data_path=None, seed=10086, shuffle=True, side_info=False, sparse_adj_path='../data/icgraph_window_750_0.6/', stock_num=1931, test_mask_path='./data/test_mask_126_1931.npy', test_path='./data/test_126_1931_12.npy', top_stocks=5, train_mask_path='./data/train_mask_2305_1931.npy', train_path='./data/train_2305_1931_12.npy', use_adj=True)
load 2305 train graphs successful!
load 126 test graphs successful!
13156
RGCNModel(
  (fc1): Linear(in_features=9, out_features=128, bias=True)
  (fc2): Linear(in_features=128, out_features=128, bias=True)
  (fc3): Linear(in_features=128, out_features=128, bias=True)
  (fc4): Linear(in_features=128, out_features=1, bias=True)
  (gnns): ModuleList(
    (0): RGCN(
      (lin_rel): ModuleList(
        (0): Linear(in_features=128, out_features=128, bias=True)
        (1): Linear(in_features=128, out_features=128, bias=True)
      )
      (lin_root): ModuleList(
        (0): Linear(in_features=128, out_features=128, bias=False)
        (1): Linear(in_features=128, out_features=128, bias=False)
      )
      (lin_gate): Linear(in_features=256, out_features=256, bias=True)
    )
    (1): RGCN(
      (lin_rel): ModuleList(
        (0): Linear(in_features=128, out_features=128, bias=True)
        (1): Linear(in_features=128, out_features=128, bias=True)
      )
      (lin_root): ModuleList(
        (0): Linear(in_features=128, out_features=128, bias=False)
        (1): Linear(in_features=128, out_features=128, bias=False)
      )
      (lin_gate): Linear(in_features=256, out_features=256, bias=True)
    )
  )
  (dropout): Dropout(p=0.3, inplace=False)
  (relu): LeakyReLU(negative_slope=0.01)
)
train 0, step: 0, loss: 2.0710565016674902, grad_norm: 0.4457589980858457, ic: -0.18610312489380443
train 0, step: 500, loss: 1.368717497275398, grad_norm: 0.851635703501506, ic: 0.06073082055288456
train 0, step: 1000, loss: 1.5071773747570583, grad_norm: 0.032780680153454984, ic: 0.1968097239372134
…
